ckpt/pom_m_release.pth (torch, 813249 bytes, 11 tensors)

agen.fq1.0.weight f4 [1000, 100]
0	0xbcca5693	-0.024699485
1	0x3dcfe5df	0.10151266
2	0xbd2abe11	-0.041685168
3	0x3c5440e3	0.012954923
4	0x3d1735ea	0.03691665
5	0x3d1242cb	0.03570823
6	0xbda60804	-0.081069976
7	0x3d8f81fd	0.07007215
8	0xbd8aa95d	-0.06770585
9	0xbc275f9b	-0.010215665
10	0x3d37759c	0.044789895
11	0xbda254d3	-0.07926335
12	0x3d849ef5	0.06475631
13	0x3d2f35fe	0.0427761
14	0xbd937ed4	-0.07201925
15	0x3c6eaafd	0.014567134
16	0x3d8a5b39	0.067556806
17	0x3dde88a1	0.10865904
18	0xbd587c7f	-0.052853104
19	0x3c861693	0.016368186
20	0x3d27b099	0.0409399
21	0x3d878bc7	0.06618457
22	0xbce63b25	-0.028104374
23	0x3d7b5e63	0.06136931
24	0x3c4d8e83	0.0125461845
25	0xbd96c146	-0.07361083
26	0x3dbd6d90	0.09249413
27	0x3d1ef95a	0.03881202
28	0x3da4a69c	0.08039591
29	0x3b97df4b	0.004634773
30	0xbda5825d	-0.080815054
31	0x3d705da5	0.058683056
32	0x3d7ffcb8	0.06249687
33	0x3d98c153	0.07458749
34	0xbcbfb55a	-0.023401905
35	0xbc24837f	-0.010041117
36	0x3d7c59f7	0.061609235
37	0xbd89f278	-0.067357
38	0xbc1266d8	-0.008935653
39	0xbd7ba4d5	-0.061436493
40	0x3c3b2696	0.011422774
41	0xbdc0ff7d	-0.094237305
42	0xbd8f15cc	-0.06986579
43	0xbdbeeb5a	-0.093222335
44	0x3d4e98b5	0.0504386
45	0xbca2c02d	-0.019867027
46	0xbd6188d6	-0.055062138
47	0x3d378970	0.044808805
48	0x3dc13b06	0.09435086
49	0x3daa8e4b	0.083279215
50	0x3d8da3cb	0.06916007
51	0xbd839517	-0.06424921
52	0x3d30c6df	0.04315841
53	0xbd5a6d70	-0.053327024
54	0xbc8c1697	-0.017100615
55	0x3c1f4a0b	0.009722243
56	0xbd001ee4	-0.03127946
57	0xbaec28ae	-0.0018017495
58	0x3d981962	0.074267164
59	0xbbcd4ac4	-0.0062650163
60	0x3d8994ea	0.06717856
61	0x3d287e55	0.041136105
62	0x3dc225c3	0.09479859
63	0xbd6341ab	-0.055482548
64	0xbd78f401	-0.060779575
65	0x3d829c14	0.06377426
66	0x3dbfd8ad	0.093674995
67	0x3d490681	0.04907847
68	0xbcf972d3	-0.03045026
69	0x3c7a9808	0.015295036
70	0x3b4af48d	0.0030968518
71	0xbb53c143	-0.0032311238
72	0x3d8d03f8	0.068855226
73	0x3c95ad8b	0.018271228
74	0xbd73e200	-0.059541702
75	0xbd7e878a	-0.06214098
76	0xbcbaeb6f	-0.022817342
77	0xbda53d8f	-0.08068382
78	0xbd032d08	-0.032025367
79	0x3cf1b141	0.029503467
80	0x3d8976e0	0.06712127
81	0x3c2b1844	0.010442797
82	0x3d80269a	0.06257363
83	0x3c8d0bf5	0.017217616
84	0xbbc04448	-0.0058675148
85	0xbccee1d7	-0.025254173
86	0xbdc1ec75	-0.09468929
87	0x3cae66aa	0.021289188
88	0xbbc43ccc	-0.005988693
89	0xbd85477e	-0.06507777
90	0x39cd9ef4	0.00039219076
91	0xbc74bed7	-0.014938078
92	0x3dba5210	0.090976834
93	0xbddf2c14	-0.10897079
94	0x3b9f1978	0.004855331
95	0x3cd88393	0.026429927
96	0xbdacc793	-0.08436503
97	0x3de1f92e	0.110338554
98	0xbd9a6cf0	-0.075403094
99	0xbad9a2b8	-0.001660428
100	0x3d2503e8	0.04028693
101	0x3c319892	0.010839598
102	0xbd0699ce	-0.032861523
103	0x3da833af	0.08212983
104	0x3d9b39fb	0.07579418
105	0x3dab7d77	0.0837354
106	0xbdb9b398	-0.09067458
107	0xbd77544e	-0.060383134
108	0xbd0463b6	-0.032321654
109	0x3d41b053	0.047287297
110	0x3d415cd0	0.047207654
111	0x3d7c2ffc	0.0615692
112	0xbd2597d6	-0.040428005
113	0x3db1a1b7	0.08673423
114	0xbb7731ea	-0.003771896
115	0x3dba1d34	0.09087601
116	0x3d3eac52	0.046551056
117	0x3db09896	0.086228535
118	0xbc1a55c5	-0.009419863
119	0xbd522620	-0.05130589
120	0x3d5fb2a0	0.05461371
121	0xbd0f1fe2	-0.034942515
122	0x3af6963e	0.0018813086
123	0x3da6ba2b	0.081409775
124	0xbc3276a3	-0.010892543
125	0xbd7f7f7d	-0.06237744
126	0xbc803adf	-0.015653072
127	0xbcfc8db2	-0.030829284
128	0xbd1221d7	-0.035676803
129	0xbd876608	-0.06611258
130	0xbc1cb07e	-0.009563563
131	0xbca37de7	-0.019957496
132	0xbd3c41a9	-0.045961056
133	0x3d410750	0.047126114
134	0xbd3d0670	-0.046148717
135	0xbdab53c0	-0.083655834
136	0x3d96bee9	0.07360632
137	0xbd860c5e	-0.065453276
138	0xbd277265	-0.04088058
139	0xbd99026e	-0.074711666
140	0xbdb29c86	-0.08721261
141	0x3dad3a70	0.08458412
142	0x3d8aba09	0.06773765
143	0x3b24fe5b	0.0025176022
144	0x3db9bae0	0.09068847
145	0x3d648264	0.055788413
146	0x3cf6f861	0.030147733
147	0x3da05dd5	0.07830397
148	0x3b7425f7	0.0037254074
149	0x3ca57284	0.020196207
150	0x3d6b5c7a	0.05746124
151	0x3d804710	0.06263554
152	0xbdaccb6a	-0.08437236
153	0xbd9c2b3b	-0.07625433
154	0xbd1252d5	-0.035723526
155	0xbdc1e51a	-0.09467526
156	0x3d643f23	0.055724274
157	0xbdacfb87	-0.084464125
158	0x3cebf1d0	0.028801829
159	0x3cd5f54f	0.026117949
160	0xbd7a4a5d	-0.061106075
161	0xbcd81461	-0.026376905
162	0x3cf97710	0.030452281
163	0xbc477c57	-0.012175641
164	0xbdb1c974	-0.08681002
165	0xbcf551b8	-0.029946193
166	0x3cbd406f	0.023102013
167	0x3d8e998f	0.06962883
168	0xbd4a2e8c	-0.049360797
169	0x3c8553da	0.016275335
170	0x3d246344	0.04013373
171	0x3db1f1b1	0.08688677
172	0x3d5a3333	0.053271484
173	0x3cbe69cd	0.02324381
174	0xbcf96aeb	-0.03044649
175	0x3d837f1d	0.06420729
176	0x3d170045	0.03686549
177	0xbd784b6d	-0.060618807
178	0xbce3d9ab	-0.027813753
179	0x3c424fba	0.011859829
180	0x3db0f6db	0.08640834
181	0xbd2753fd	-0.04085158
182	0x3ca9aae1	0.020711364
183	0x3d4e6637	0.05039045
184	0xbb1cf975	-0.00239524
185	0xbcd67dc5	-0.026183018
186	0xbd8adafd	-0.0678005
187	0xbcab9e1b	-0.020949414
188	0x3bb52707	0.005528334
189	0x3c6e4de0	0.014544934
190	0x3d9dfc24	0.07714108
191	0xbd92c9f0	-0.07167423
192	0x3d8d4529	0.06897957
193	0xbd08c8b6	-0.033394538
194	0xbb00a21c	-0.0019627875
195	0x3cda046e	0.02661344
196	0xbab71de0	-0.0013970695
197	0xbc81fe1c	-0.01586824
198	0x3d2d3a0c	0.042291686
199	0x3da23bce	0.07921563
200	0xbcbc6f03	-0.023002153
201	0x3c6f512f	0.014606758
202	0xbd83248a	-0.06403454
203	0x3d9c663e	0.07636689
204	0xbd8b8b9a	-0.06813736
205	0xbd437ca6	-0.047726296
206	0x3ce67460	0.028131664
207	0xbd93529c	-0.07193491
208	0xbd53020e	-0.05151563
209	0x3db4c13f	0.08825921
210	0x3cc78de8	0.024359658
211	0xbdd8e327	-0.10590201
212	0xbdb7d6c5	-0.08976511
213	0x3db12478	0.08649534
214	0xbc0a3207	-0.008434779
215	0x3d57906d	0.05262797
216	0xbd85ef3d	-0.06539772
217	0xbd46a4f1	-0.048497144
218	0x3daab65d	0.08335564
219	0x3da87b30	0.08226621
220	0xbd086390	-0.033298075
221	0xbc791f13	-0.015205163
222	0x3dc2bbc6	0.09508471
223	0xbd80808c	-0.06274518
224	0xbd16878b	-0.036750358
225	0xbcc47089	-0.023979442
226	0x3d8d2033	0.06890907
227	0x3da26608	0.07929617
228	0xbc88bbe1	-0.01669115
229	0x3d47d636	0.04878827
230	0x3d8cbb33	0.06871643
231	0x3d8cb3e9	0.06870253
232	0x3d069300	0.032855034
233	0xbcab7adb	-0.020932605
234	0xbdd51e01	-0.104061134
235	0x3cbd35fc	0.02309703
236	0x3a8d7a5c	0.0010793912
237	0xbdae77cd	-0.08518944
238	0xbc8a10c2	-0.016853694
239	0xbd520951	-0.051278416
240	0xbba5d20d	-0.0050604404
241	0x3d59dadd	0.05318724
242	0xbd213c85	-0.039364357
243	0xbdb679f6	-0.08909981
244	0xbdca4d61	-0.0987804
245	0xbd4caaae	-0.04996746
246	0xbd199218	-0.03749284
247	0xbcd33fbb	-0.025787225
248	0x3d496c6f	0.049175676
249	0xbdbb7574	-0.09153262
250	0x3da0f1db	0.0785863
251	0xbdb8269e	-0.08991741
252	0x3d9b30e4	0.075776845
253	0xbd92a0b3	-0.07159557
254	0xbdbf0760	-0.093275785
255	0x3cbba877	0.022907479

agen.fq1.0.bias f4 [1000]
0	0x3c85af35	0.016318897
1	0xbcb7c103	-0.022430902
2	0x3d0d88d7	0.03455433
3	0x3dc02afa	0.09383197
4	0x3d497dc8	0.04919222
5	0xbd89f1aa	-0.06735547
6	0x3c0b4ce3	0.008502218
7	0xbbd02153	-0.006351629
8	0x3bded89f	0.0068007256
9	0xbda1db7f	-0.07903194
10	0x3d6bb08f	0.057541426
11	0xbd428468	-0.047489554
12	0xbc2dddb3	-0.010611939
13	0x3cc8c518	0.024508044
14	0x3d1cdde5	0.038297553
15	0xbd09fc71	-0.033688013
16	0xbd4da84d	-0.050209332
17	0xbbc68ad7	-0.0060590315
18	0x3d0a4c7c	0.033764347
19	0x3cd74676	0.026278716
20	0x3db445be	0.08802365
21	0xbd0adf67	-0.03390446
22	0x3d9a5409	0.0753556
23	0xbdac461f	-0.08411812
24	0xbd8203fb	-0.063484155
25	0x3d22fd12	0.039792128
26	0xbd3f32b6	-0.04667922
27	0xbcb61198	-0.022225186
28	0x3c74c915	0.01494052
29	0x3dc13218	0.09433383
30	0x3d0ff6c0	0.03514743
31	0x3c125215	0.008930703
32	0x3db9fbc0	0.090812206
33	0x3dca6523	0.098825715
34	0x3c27c2a6	0.010239279
35	0xbaa34fff	-0.0012459754
36	0xbd0d9bef	-0.034572538
37	0xbd81b190	-0.063326955
38	0xbd406c49	-0.04697827
39	0x3b0bc311	0.0021325985
40	0x3d48c040	0.04901147
41	0x3d833ab8	0.06407684
42	0xbcc1a9bc	-0.023640506
43	0xbb57b246	-0.0032912656
44	0xbc580949	-0.0131858075
45	0x3d8c163b	0.068401776
46	0xbc173f08	-0.009231336
47	0xbc691cd0	-0.014228061
48	0xbdcdd266	-0.10049896
49	0xbc2b9eb3	-0.010474849
50	0x3ba1dfd9	0.004940015
51	0x3dd0a2a0	0.10187268
52	0x3c1f3ec9	0.009719559
53	0xbcdcf517	-0.026972337
54	0xbdaa4494	-0.083138615
55	0xbd942d32	-0.07235183
56	0xbd5f5bdc	-0.054530963
57	0x3da944e7	0.08265095
58	0x3cdc682b	0.02690514
59	0x3d87e028	0.06634551
60	0xbd98ec9d	-0.074670054
61	0xbd2042ce	-0.03912621
62	0xbd93af80	-0.07211208
63	0xbdac5563	-0.08414724
64	0x3d99f3ec	0.075172275
65	0x3d88afd4	0.066741616
66	0xbd8a2d4a	-0.067469195
67	0xbc3992ba	-0.011326486
68	0x3c8013ab	0.015634378
69	0xbd6574fb	-0.056019764
70	0x3c10518d	0.008808506
71	0xbdb65455	-0.08902804
72	0xbc3eff02	-0.011657478
73	0x3c8bc759	0.01706283
74	0x3db4524a	0.08804758
75	0xbd9531ca	-0.07284887
76	0x3ccae18c	0.024765752
77	0x3da315e1	0.079631574
78	0xbda75b86	-0.081717536
79	0xbbdcd6e2	-0.006739483
80	0xbcf40289	-0.029786365
81	0x3dcf7116	0.10128991
82	0x3daf8802	0.08570863
83	0x3d83f45a	0.06443091
84	0x3d40b59c	0.047048196
85	0xbdbddcb2	-0.0927061
86	0x3d0349a6	0.03205266
87	0xbdcca273	-0.09991922
88	0x3d7af358	0.061267227
89	0xbcf4334d	-0.029809618
90	0xbdaa8b47	-0.08327346
91	0x3d9887ce	0.07447778
92	0xbd76f2ec	-0.060290262
93	0x3dad66e9	0.08466894
94	0xbd346f61	-0.04405153
95	0x3d32042e	0.043461017
96	0x3d6c7cc9	0.057736192
97	0x3d6bea8f	0.05759674
98	0xbdca5e53	-0.09881272
99	0xbd1f1c65	-0.03884544
100	0xbdc4e8aa	-0.0961469
101	0x3cad97fa	0.021190632
102	0xbd895eb4	-0.06707516
103	0x3d9f3d1e	0.07775329
104	0x3dab30c0	0.08358908
105	0x3dc52d9a	0.096278384
106	0xbca34daf	-0.019934503
107	0x3d87161d	0.06596015
108	0xbdc4d159	-0.096102424
109	0x3d43b1bc	0.047776923
110	0xbd922cc3	-0.07137444
111	0xbc45fe08	-0.012084492
112	0x3c5875ec	0.0132117085
113	0xbae4dbe6	-0.0017460554
114	0xbcd9cfec	-0.026588403
115	0x3da9f3fd	0.0829849
116	0xbdbc3348	-0.091894686
117	0x3dad59ae	0.08464371
118	0x3d0e827d	0.034792412
119	0x3d83c3d7	0.06433838
120	0xbd915058	-0.070954025
121	0xbdb1c1c9	-0.0867954
122	0x3dab3ccb	0.08361205
123	0x3bda8529	0.006668706
124	0xbbcec5bc	-0.006310193
125	0xbc9e1eaa	-0.019301731
126	0x3d338811	0.043830935
127	0x3d71fdea	0.059080042
128	0xbdd36151	-0.10321296
129	0x3d1a25a6	0.03763356
130	0x3d8e469a	0.0694706
131	0x3d16d3b9	0.03682301
132	0xbd578537	-0.052617278
133	0xbd3b8ddf	-0.045789596
134	0xbda247bd	-0.07923839
135	0x3d982aa0	0.07430005
136	0xbd86f546	-0.06589751
137	0x3c6f26d4	0.01459666
138	0xbb327505	-0.0027230394
139	0xbc64b4bc	-0.013959106
140	0xbdcd86b1	-0.10035456
141	0xbd71eda2	-0.059064515
142	0xbbb749e1	-0.005593524
143	0xbbe16572	-0.0068785483
144	0x3d7b676b	0.061377924
145	0x3db37716	0.08762948
146	0xbc99733f	-0.018731711
147	0xbd6a185c	-0.057152137
148	0xbdbfd76e	-0.09367262
149	0xbdb5496c	-0.08851895
150	0x3d9aafc1	0.07553054
151	0xbc73be3e	-0.0148769
152	0x3cb8ed41	0.022574069
153	0xbda76d4f	-0.08175146
154	0xbd4de924	-0.05027117
155	0x3d8c0a03	0.06837847
156	0xbd8bd914	-0.06828514
157	0xbac87639	-0.0015294022
158	0xbdb36534	-0.08759537
159	0x3db1503e	0.08657883
160	0xbd862af9	-0.06551165
161	0xbd9de4d0	-0.07709658
162	0xbd509f34	-0.050933078
163	0x3daaed92	0.08346094
164	0x3d82b42b	0.063820206
165	0xbd232532	-0.039830394
166	0x3bd2f3c2	0.0064377496
167	0xbd0a981c	-0.03383647
168	0xbd153677	-0.036428895
169	0x3d3cd744	0.04610373
170	0xbcdade75	-0.026717404
171	0x3b0842ef	0.0020791849
172	0xbcb600f6	-0.022217255
173	0x3c521de3	0.012824508
174	0xbcc2ba8f	-0.023770599
175	0xbd42800d	-0.0474854
176	0xbd0c5be5	-0.034267325
177	0x3d3fa68d	0.046789695
178	0x3d43d32f	0.047808822
179	0xbd041b4c	-0.032252595
180	0x3a74f55a	0.00093444216
181	0x3c7c51be	0.015400348
182	0xbdbfa451	-0.09357513
183	0xbdd5a2cb	-0.10431441
184	0xbc5e3859	-0.013563239
185	0x3d31268a	0.043249644
186	0x3d9d3fe7	0.07678204
187	0x3cc29b01	0.023755552
188	0x3b6c34f6	0.003604231
189	0xbd06da1b	-0.032922845
190	0xbcc18c1c	-0.02362638
191	0x3c7909a1	0.01520005
192	0x3c3ed020	0.011646301
193	0x3b70b8c8	0.0036731232
194	0x3d43555a	0.04768882
195	0x3d2b1273	0.04176564
196	0xbd8e3d55	-0.06945292
197	0xbd8885d8	-0.06666154
198	0xbcd3a036	-0.02583323
199	0x3bb9ffdc	0.005676253
200	0x3d1bd7ca	0.03804759
201	0xbd5582cd	-0.052126694
202	0xbdd3f280	-0.103489876
203	0xbcc303fa	-0.023805607
204	0xbda43514	-0.08017936
205	0x3dbd745a	0.09250708
206	0xbd3c63b6	-0.04599353
207	0x3c0cc363	0.008591506
208	0xbd8f29a3	-0.069903634
209	0xbc99b388	-0.018762365
210	0x3b654e23	0.00349892
211	0x3dcb68df	0.09932112
212	0x3c9a38bc	0.018825881
213	0xbd4305f4	-0.0476131
214	0x3b058f54	0.002037962
215	0xbce1e548	-0.02757515
216	0x3db943d2	0.09046139
217	0xbd27d747	-0.04097679
218	0x3d5e0547	0.05420425
219	0xbd292c4b	-0.041302007
220	0xbd45e5b6	-0.048314773
221	0xbd5c1814	-0.0537339
222	0x3d1ccbf8	0.038280457
223	0x3c3dc45f	0.011582463
224	0x3d4a0eb3	0.049330425
225	0x3dbf8821	0.093521364
226	0x3d86bf97	0.065795116
227	0xbdbcad9d	-0.092128016
228	0xbc9fcb8c	-0.019506238
229	0xbda61c59	-0.08110876
230	0x3d106016	0.035247885
231	0x3da1622e	0.078800544
232	0x3dab8d4d	0.0837656
233	0xbda0a69b	-0.078442775
234	0x3d5fc626	0.05463233
235	0xbd8341dd	-0.06409047
236	0x3cc12795	0.023578444
237	0xbcdd2f09	-0.026999967
238	0xbc98f551	-0.018671663
239	0x3cc7644e	0.024339821
240	0xb9d51793	-0.0004064409
241	0x3bf9897e	0.0076152673
242	0xbd6065ee	-0.054784708
243	0x3d37193d	0.044701803
244	0xbca28a26	-0.019841265
245	0xbdb99d53	-0.0906321
246	0xbda6049d	-0.08106349
247	0x3d1ba57c	0.037999615
248	0x3cee1080	0.029060602
249	0x3da919ea	0.08256896
250	0xbd407521	-0.046986703
251	0xbd172748	-0.036902696
252	0xbd2d865b	-0.04236446
253	0x3cfa6517	0.030565782
254	0xbd5d90e6	-0.054093264
255	0x3d47d67a	0.048788525

agen.fk1.0.weight f4 [1000, 100]
0	0xbca38e77	-0.019965393
1	0xbdbfd4aa	-0.09366734
2	0xbd3577c9	-0.04430369
3	0x3daf49a6	0.08558969
4	0x3dc8fcab	0.098138176
5	0xbcba85fb	-0.022768965
6	0x3d3d5f7c	0.04623364
7	0x3cc48cb2	0.02399287
8	0xbda8f7f2	-0.08250417
9	0x3cb27558	0.02178447
10	0x3d40a1f7	0.04702946
11	0x39ff9ead	0.00048755613
12	0xbdc90cfb	-0.09816929
13	0x3c00e42a	0.007866899
14	0xbd5b3313	-0.053515505
15	0x3dac7303	0.08420374
16	0xbc7e00c9	-0.015503117
17	0xbc988cbf	-0.0186218
18	0x3da7ed54	0.081995636
19	0xbd538cbb	-0.051647883
20	0xbdcdd962	-0.10051228
21	0x3d577fa5	0.052611966
22	0x3d9dbebd	0.07702396
23	0x3bac2e83	0.005254568
24	0x3da07c4b	0.07836207
25	0x3c92fae0	0.017941892
26	0x3d241cd6	0.040066563
27	0x3d77225f	0.060335513
28	0x3dc4f7ed	0.096176006
29	0xbcee9912	-0.029125724
30	0xbd22a462	-0.03970755
31	0xbdbc2ada	-0.09187861
32	0xbdcc0b67	-0.09963112
33	0xbd6659dd	-0.056238044
34	0x3ca3bab1	0.019986482
35	0xbc749e38	-0.0149303
36	0xbb8f266a	-0.004368593
37	0xbdb5622b	-0.08856615
38	0xbda07fab	-0.07836851
39	0x3c6d67e7	0.014490104
40	0xbcf50e21	-0.029913964
41	0x3dbaa563	0.09113576
42	0x3d0f4b07	0.03498366
43	0xbd483206	-0.04887583
44	0x3d941f70	0.07232559
45	0x3cbe8b19	0.023259686
46	0xbd806cf7	-0.062707834
47	0xbd62984e	-0.05532103
48	0xbd6107c8	-0.05493906
49	0xbdb67a67	-0.08910065
50	0xbdb12331	-0.0864929
51	0x3da3208a	0.07965191
52	0xbcb6aa06	-0.02229787
53	0x3d8bd83a	0.06828351
54	0xbc5490b7	-0.012973956
55	0xbcae6799	-0.021289634
56	0xbdae210b	-0.08502396
57	0xbca4f09b	-0.02013426
58	0x3c71439a	0.01472559
59	0xbc336b19	-0.010950827
60	0xbda4ad84	-0.08040908
61	0x3d241ad6	0.040064655
62	0xba95ee97	-0.0011438903
63	0x3dbebc4f	0.09313261
64	0x3da56360	0.08075595
65	0xbc4d7a9e	-0.012541441
66	0xbd2e6583	-0.042577278
67	0x3ca3791c	0.01995521
68	0xbd3b0e6d	-0.045668054
69	0xb828eff4	-4.0277795e-05
70	0xbda80a1c	-0.08205053
71	0xbc4279f7	-0.011869899
72	0x3d8f4945	0.06996397
73	0xbdc22a86	-0.09480767
74	0x3ca583c1	0.020204427
75	0x3b204c48	0.002445953
76	0xbd9eb8df	-0.07750105
77	0x3d3f8f18	0.046767324
78	0xbda691a2	-0.08133246
79	0x3da2394f	0.07921087
80	0xbc5d6045	-0.013511722
81	0x3cdef6d3	0.027217304
82	0x3d8887a8	0.066664994
83	0xbd6c8b67	-0.057750132
84	0x3d9b58dd	0.07585309
85	0x3dc901f9	0.098148294
86	0x3d142994	0.036172464
87	0x3d1c0743	0.038092863
88	0xbd63a9ac	-0.055581734
89	0x3d75dd1c	0.06002532
90	0x3db976b4	0.09055844
91	0xbc3f94f4	-0.011693228
92	0x3d94721c	0.07248327
93	0xbdbe64b2	-0.0929655
94	0xbd909114	-0.070589215
95	0x3d26d163	0.04072703
96	0x3c2f0d67	0.010684348
97	0xbd462e84	-0.048384205
98	0xbd448cd7	-0.047985878
99	0xbcb54149	-0.022125857
100	0x3dcfffb3	0.10156193
101	0xbdbbf940	-0.091784
102	0xbdd26b52	-0.10274376
103	0xbd35826a	-0.044313826
104	0x3cd4e9d3	0.025990402
105	0xbdafbaf1	-0.08580578
106	0x3c9859af	0.018597452
107	0xbcd937d1	-0.026515873
108	0x3dbafaf5	0.091298975
109	0xbb6df18d	-0.0036307306
110	0xbd7ec5d0	-0.062200367
111	0xbd5776dc	-0.052603588
112	0x3d46ffa3	0.048583638
113	0xbd8a00db	-0.067384444
114	0xbd9ce097	-0.076600246
115	0x3c9ed932	0.019390676
116	0x3cb106f2	0.021609757
117	0x3d8dd932	0.06926192
118	0x3dac807e	0.084229454
119	0x3d8fda7b	0.07024094
120	0xbcad6d3e	-0.021170255
121	0xbcb99a26	-0.022656512
122	0x3d6d57ea	0.05794517
123	0xbd0d7fce	-0.034545712
124	0x3c427a80	0.011870027
125	0x3dad30b0	0.08456552
126	0xbd3f2501	-0.04666615
127	0xbd99c28b	-0.07507809
128	0x3d9a6891	0.07539476
129	0x3d17bab0	0.037043273
130	0x3bdda545	0.0067640864
131	0x3b07070c	0.0020603565
132	0x3cdb5fe6	0.026779126
133	0x3cef5b8d	0.02921846
134	0x3c8d571f	0.017253457
135	0xbcf5ea5d	-0.03001898
136	0xbca54ec0	-0.020179152
137	0xbdb221af	-0.08697831
138	0x3dad6e9d	0.084683634
139	0xbdb14ca3	-0.086571954
140	0xbc9719a8	-0.018444851
141	0xbc13b61a	-0.009015584
142	0x3d3cfaf7	0.046137776
143	0x3da66d45	0.0812631
144	0x3ca248e4	0.019810148
145	0x3d9d1047	0.0766912
146	0x3c8616d9	0.016368316
147	0xbc5261dd	-0.012840715
148	0xbd6982f9	-0.05700967
149	0x3dbd0eea	0.0923136
150	0xbd84ebcb	-0.064902864
151	0xbda75a2a	-0.08171494
152	0xbd64710f	-0.055771884
153	0x3d76c93a	0.0602505
154	0xbd9e271c	-0.07722303
155	0xbdb5aa2c	-0.08870348
156	0x3caf5802	0.02140427
157	0x3ba4774c	0.005019104
158	0x3d931ee9	0.0718363
159	0xbd6df371	-0.058093492
160	0xbd617a35	-0.055048186
161	0xbd8ac030	-0.06774938
162	0x3da22c99	0.079186626
163	0xbd3c4bad	-0.045970608
164	0x3d3fa4fc	0.0467882
165	0xbdad63b8	-0.084662855
166	0xbd44923a	-0.047991015
167	0x3ced705d	0.028984243
168	0x3da3be5d	0.07995293
169	0x3d2bfbfd	0.04198836
170	0xbd5497d7	-0.05190262
171	0x3da9c2fe	0.08289145
172	0xbd9d6d55	-0.07686869
173	0xbd373fd4	-0.044738606
174	0x3dd2842a	0.102791145
175	0x3d97bb6c	0.07408795
176	0x3d9f1205	0.07767109
177	0xbc99071d	-0.01868015
178	0x3d4181ef	0.047243055
179	0xbc809cb4	-0.015699722
180	0x3d8106be	0.06300114
181	0xbd152b33	-0.03641815
182	0xbdb63f07	-0.0889874
183	0xbd3136ed	-0.043265272
184	0xbc214fa3	-0.009845647
185	0xbd967e62	-0.07348324
186	0x3dcc3e25	0.09972791
187	0x3c96889d	0.01837569
188	0x3d8cd64d	0.06876812
189	0x3dc4c934	0.09608689
190	0xbd733b8f	-0.05938297
191	0x3dc99e60	0.09844661
192	0xbd3ba0c4	-0.045807615
193	0xbd55436c	-0.05206625
194	0xbd757223	-0.059923302
195	0x3d99783a	0.074936345
196	0x3b994123	0.0046769544
197	0x3d670b58	0.056407303
198	0xbc33696a	-0.010950426
199	0x3b8a7274	0.0042250697
200	0xbca3b940	-0.019985795
201	0xbd973ea2	-0.07384993
202	0xbc17222f	-0.009224459
203	0x3dc2a11c	0.095033854
204	0x3c2247b6	0.0099047925
205	0x3da6e91a	0.08149929
206	0x3d03948e	0.032124095
207	0xbdb0e648	-0.08637673
208	0x3d50ece2	0.05100716
209	0xbd7b2324	-0.06131281
210	0xbc3e1aff	-0.011603116
211	0x3da8e779	0.08247275
212	0xbbed2f4d	-0.0072383047
213	0xb9ca8f3c	-0.0003863516
214	0x3dd219fd	0.10258863
215	0x3d524adc	0.051340923
216	0x3cdbf87e	0.026851889
217	0xbcaa6e24	-0.020804472
218	0xbd3e94b3	-0.04652853
219	0xbdbc14fa	-0.091836885
220	0x3dc5355b	0.096293174
221	0xbd9cfa64	-0.07664946
222	0x3d0644c7	0.032780435
223	0x3d2a3a20	0.04155934
224	0x3db2d60d	0.08732233
225	0xbd54545a	-0.051838256
226	0xbd178d67	-0.037000086
227	0xbd32451b	-0.043522935
228	0xbc61b1ba	-0.0137752835
229	0x3d20fafd	0.03930186
230	0xbd86e573	-0.06586733
231	0x3d6e2f91	0.05815083
232	0xbb74e9a4	-0.0037370706
233	0x3cb6c93a	0.02231275
234	0xbb9fadb4	-0.004873002
235	0xbda5d66e	-0.0809754
236	0x3da852b6	0.08218901
237	0xbd769d13	-0.06020839
238	0xbdb38549	-0.087656565
239	0x3db16cc8	0.086633265
240	0x3d5d22be	0.05398821
241	0x3ca12b69	0.01967402
242	0xbba0e6cc	-0.0049103256
243	0x3d42cde7	0.047559645
244	0x3dac3e12	0.084102765
245	0xbc112407	-0.008858687
246	0xbcfa3276	-0.03054164
247	0xbd2e7d0b	-0.04259972
248	0xbd58d021	-0.052932862
249	0xbcf2236e	-0.02955791
250	0xbc2a3d03	-0.010390523
251	0x3cb5a564	0.022173591
252	0x3d2bb0bb	0.04191659
253	0x3d570b51	0.052501027
254	0xbc6907aa	-0.014223019
255	0x3c8e52aa	0.017373402

agen.fk1.0.bias f4 [1000]
0	0xbb91523b	-0.0044348515
1	0xbc44a306	-0.012001758
2	0xbdc629c8	-0.09675938
3	0xbd2ad3d5	-0.041705925
4	0x3d3b07ca	0.045661725
5	0x3d674724	0.05646433
6	0xbc8538ee	-0.016262498
7	0x3d939680	0.0720644
8	0xbccf0fa4	-0.025276013
9	0x3caa1d92	0.020766053
10	0xbca0ebca	-0.019643683
11	0x3d2b392c	0.04180257
12	0x3dc227e2	0.09480263
13	0xbd8ae454	-0.067818314
14	0xbdb4d2c5	-0.088292636
15	0xbda85aca	-0.08220442
16	0xbdb8716f	-0.09006011
17	0xbcf9d7d0	-0.030498415
18	0x3da4f28f	0.08054077
19	0x3a529391	0.00080328534
20	0x3d63b33f	0.055590864
21	0x3d110a25	0.035410065
22	0x3cc95bb2	0.024579857
23	0x3d14b918	0.03630933
24	0xbd871da8	-0.06597453
25	0xbc88e2b7	-0.016709669
26	0x3cacac1d	0.021078164
27	0xbd172adb	-0.036906105
28	0x3dab847d	0.083748795
29	0x3d789944	0.06069304
30	0xbd60d019	-0.054885957
31	0x3dbdef02	0.09274103
32	0xba8bfebf	-0.0010680779
33	0x3c356fe9	0.011074045
34	0x3c7f99ae	0.015600605
35	0xbb2c3203	-0.0026274926
36	0xbdbb3a64	-0.091419965
37	0x3dbabfca	0.09118612
38	0xbc024c15	-0.00795271
39	0x3d2a1afe	0.041529648
40	0xbd3807f0	-0.044929445
41	0x3d829909	0.063768454
42	0xbcc96db0	-0.024588436
43	0x3b990273	0.0046694814
44	0x3d263c28	0.040584713
45	0x3c00fe63	0.0078731505
46	0x3d7088b9	0.05872414
47	0x3dbac621	0.09119821
48	0xbd21fb17	-0.0395461
49	0xbdbf8a03	-0.093524955
50	0xbdaa78be	-0.08323811
51	0xbcdbe603	-0.026843077
52	0x3d25d680	0.040487766
53	0xbdb546b8	-0.08851379
54	0x3d220518	0.03955564
55	0x3db601c8	0.088870585
56	0xbd5c2dcf	-0.053754624
57	0x3dc77636	0.09739344
58	0x3db83f20	0.08996415
59	0x3c78254c	0.015145611
60	0xbd8f92ba	-0.07010408
61	0xbc36b2ec	-0.011151057
62	0x3d29fa9c	0.041498765
63	0xbd259af9	-0.040430997
64	0x3cd894ee	0.026438203
65	0xbc1a6d84	-0.009425525
66	0x3aaab940	0.001302518
67	0xbbce671e	-0.0062989136
68	0x3ce5f775	0.028072098
69	0xbdc46759	-0.095900245
70	0xbda60fe4	-0.081085
71	0xbdc895ee	-0.09794222
72	0xbd9ae8b0	-0.07563913
73	0x3cc66d95	0.024222175
74	0x3d6175ec	0.0550441
75	0xbdbfd500	-0.093667984
76	0xbdbf9a8a	-0.09355648
77	0xbc585e04	-0.013206009
78	0xbc36bcde	-0.011153428
79	0x3d1e11c2	0.038591154
80	0xbdcbe31a	-0.099554256
81	0xbd1c620b	-0.03817944
82	0x3dba6f65	0.09103278
83	0x3dc258e6	0.09489612
84	0xbd15e68e	-0.036596827
85	0x3dbfc644	0.09363988
86	0x3c3a86a6	0.011384642
87	0x3cd5efde	0.026115354
88	0x3d62b179	0.055345032
89	0xbda842bc	-0.082158536
90	0x3ce1c313	0.027558839
91	0x3c558f01	0.013034583
92	0x3d27ffcc	0.04101543
93	0x3cb024a5	0.021501848
94	0xbd8a46a4	-0.06751755
95	0x3db03857	0.08604496
96	0xbb1918a5	-0.0023360637
97	0xbd00e041	-0.031463865
98	0x3db8c4ec	0.09021935
99	0x3c64ab2d	0.013956827
100	0xbd65465a	-0.055975296
101	0xbdbf6d4e	-0.0934702
102	0x3dc0fe47	0.094234996
103	0xbd439f1c	-0.04775916
104	0x3d967af8	0.07347673
105	0x3cb2e212	0.021836314
106	0x3c9306de	0.01794761
107	0xbc7ab877	-0.015302769
108	0xbdcf3f75	-0.10119525
109	0x3c5b50df	0.01338598
110	0x3dc7534d	0.09732685
111	0x3d9020af	0.07037484
112	0x3c3f2f5f	0.011669009
113	0x3d807653	0.062725686
114	0x3da734a4	0.08164337
115	0x3db4ec7b	0.088341676
116	0x3d8f2640	0.069897175
117	0xbdb62db7	-0.08895438
118	0x3d99ba43	0.0750623
119	0x3d63912c	0.05555837
120	0x3da30d2c	0.07961497
121	0xbdc19b15	-0.09453408
122	0xbd5c7788	-0.05382493
123	0xbd4ea60a	-0.050451316
124	0x3c9aef93	0.018913066
125	0xbdbe2df0	-0.09286106
126	0x3d5f30b2	0.0544898
127	0x3cdd6f2d	0.027030552
128	0xbdabd448	-0.08390099
129	0xbd770bda	-0.060314037
130	0xbd77cc33	-0.060497474
131	0xbd807955	-0.06273142
132	0x3ce62e12	0.02809814
133	0x3d0a29d0	0.03373128
134	0xbdcec144	-0.10095456
135	0xbd15c165	-0.03656139
136	0x3d884bce	0.066550836
137	0xbd213f24	-0.039366856
138	0xbd286711	-0.041113917
139	0x3d11d837	0.03560659
140	0xbd8914fb	-0.06693455
141	0xbd905e75	-0.07049266
142	0x3cc3b05d	0.023887808
143	0x3d995699	0.0748722
144	0xbd71b809	-0.0590134
145	0x3c95d069	0.018287854
146	0x3d8e36b0	0.069440246
147	0x3c7552fe	0.0149734
148	0x3dae612d	0.085146286
149	0xbd0aaea1	-0.033857945
150	0xbb74bbe9	-0.0037343448
151	0x3d959f2b	0.073057495
152	0x3d3a57a8	0.04549375
153	0xbcc154eb	-0.023600062
154	0xbd72a3bb	-0.059238177
155	0xbda8c24a	-0.08240183
156	0xbcfe58b0	-0.031048149
157	0x3c1e603e	0.009666501
158	0x3cb2f666	0.021846008
159	0xbd9ab73a	-0.07554479
160	0xbdb5f1e9	-0.08884031
161	0x3d6a249c	0.05716382
162	0x3c49a9f1	0.012308584
163	0xbd575b9b	-0.052577596
164	0x3c8bef22	0.0170818
165	0x3d0cf396	0.03441199
166	0x3cb41d34	0.021986581
167	0xbc740989	-0.0148948515
168	0xbd8b4106	-0.067995116
169	0xbcd24b67	-0.02567072
170	0x3da75a0a	0.081714705
171	0xbaf93357	-0.0019012493
172	0xbceb8d66	-0.028753947
173	0x3d93b59b	0.07212373
174	0x3d062c76	0.032757245
175	0x3d6d0f89	0.057876144
176	0xbdb449f9	-0.08803172
177	0xbdc1c7db	-0.094619475
178	0x3c436301	0.01192546
179	0x3d9dbc6f	0.077019565
180	0xbce9e05d	-0.028549368
181	0xbc4f9417	-0.012669585
182	0x3cef2cf1	0.029196234
183	0x3d6b6c04	0.05747606
184	0x3d93b2c2	0.0721183
185	0x3d14ab35	0.03629609
186	0x3daf9943	0.08574154
187	0x3d9040c8	0.07043606
188	0x3d782a76	0.06058737
189	0xbdc34367	-0.0953434
190	0x3ca496a7	0.020091368
191	0xbc7376d8	-0.0148598775
192	0x3dcca9b7	0.09993308
193	0x3da96ac5	0.08272318
194	0x3d083710	0.033255637
195	0x3cfb5bfc	0.03068351
196	0xbda9b203	-0.08285906
197	0xbc9482a5	-0.018128702
198	0xbd8ab084	-0.06771949
199	0xbd335a1b	-0.043787103
200	0xbd5e465d	-0.054266322
201	0x3d8e67bb	0.06953379
202	0xbda46c1e	-0.08028434
203	0x3d3e1254	0.046404198
204	0xbd865bdc	-0.065604895
205	0x3d0f26f7	0.03494927
206	0xbce004f4	-0.027346112
207	0xbd3d00fd	-0.04614352
208	0xbd3387cb	-0.043830674
209	0x3da5ba8e	0.08092223
210	0xbc219a5c	-0.009863462
211	0x3da045de	0.07825826
212	0x3cede234	0.029038526
213	0xbd92e25c	-0.07172081
214	0xbc9cb1d2	-0.01912776
215	0xbdb16970	-0.08662689
216	0x3d029f4f	0.03189021
217	0x3cff2a9a	0.031148244
218	0x3d99255b	0.07477828
219	0xbdad978b	-0.0847617
220	0xbdb3df58	-0.08782834
221	0xbd16dccb	-0.03683166
222	0xb9b343f0	-0.00034192158
223	0x3c495380	0.012287974
224	0x3dac432b	0.08411249
225	0x3da39470	0.079872966
226	0xbdcb391e	-0.099230036
227	0x3d7c239e	0.061557405
228	0xbd0b6180	-0.03402853
229	0xbd0f78b6	-0.03502723
230	0x3d5a9df8	0.053373307
231	0x3c812337	0.015763862
232	0xbda3b451	-0.07993377
233	0xbbe8039e	-0.0070805093
234	0xbdc3a2d4	-0.095525414
235	0x3be20fa3	0.0068988367
236	0x3c9d979f	0.019237338
237	0x3dc04ae9	0.09389288
238	0x3dbfb359	0.0936038
239	0x3ce4ccc8	0.027929679
240	0x3d8ed469	0.06974108
241	0xbc84ca4d	-0.016209746
242	0x3d53f373	0.051745843
243	0xbdadaca6	-0.08480196
244	0x3d32ea0c	0.043680236
245	0x3b56b6ee	0.0032762843
246	0x3d313537	0.04326364
247	0xbd8d3be6	-0.0689619
248	0xbcdfffeb	-0.02734371
249	0xbd031cde	-0.03200995
250	0xbbc29fc7	-0.005939457
251	0x3d9a89c3	0.07545807
252	0xbd75d8a4	-0.060021058
253	0x3c63a071	0.013893233
254	0xbdb743e6	-0.089484975
255	0x3d1e712a	0.03868214

agen.w.0.weight f4 [100, 2]
0	0x3f250c95	0.64472324
1	0xbeaef731	-0.34172967
2	0xbeae84f2	-0.34085804
3	0xbf03dd0a	-0.51509154
4	0xbec5b8aa	-0.3861745
5	0x3d9aa556	0.075510666
6	0x3ea024c8	0.31278062
7	0x3d8a38e8	0.06749135
8	0xbf14d29a	-0.5813385
9	0xbed63752	-0.4183908
10	0xbd904d6b	-0.07046016
11	0xbe345cae	-0.1761348
12	0xbd99f67d	-0.07517717
13	0xbd9d071f	-0.07667374
14	0x3f25908e	0.646737
15	0xbefc1ab7	-0.49239132
16	0xbf0de445	-0.55426437
17	0xbe9a7fb0	-0.30175543
18	0x3ee443fb	0.44583115
19	0x3ed8850c	0.42289007
20	0x3f17e3db	0.59332055
21	0x3f2369c2	0.6383325
22	0x3edeb7c5	0.4349958
23	0xbf11990c	-0.56874156
24	0xbe883f7c	-0.26610935
25	0x3e245c62	0.16050866
26	0xbeb9b98c	-0.36274374
27	0xbef88e58	-0.485461
28	0x3d386eb3	0.045027446
29	0x3f300175	0.68752223
30	0xbf257f85	-0.64647704
31	0x3e14b31e	0.14521453
32	0xbf2068b4	-0.62659764
33	0x3f01ae27	0.5065636
34	0x3e67a311	0.22620799
35	0xbeee178e	-0.46502346
36	0xbf2766ad	-0.65391046
37	0xbf26b70e	-0.6512307
38	0x3f284966	0.65737
39	0xbebff6d1	-0.37492993
40	0x3e762458	0.24037302
41	0x3e4f5b8b	0.20249765
42	0x3eb1a9ca	0.3469985
43	0x3dbe3dfc	0.09289166
44	0x3e7d2e7d	0.24724765
45	0xbe882467	-0.26590273
46	0xbe9d5d6e	-0.30735344
47	0xbe84e6f9	-0.25957468
48	0x3dfb1091	0.12259019
49	0x3e7cc367	0.24683915
50	0xbef7d01e	-0.48400968
51	0x3dcd2674	0.100171
52	0xbf104695	-0.563577
53	0xbf2a3b9e	-0.6649722
54	0x3eb69c30	0.35666037
55	0xbf3292a8	-0.6975503
56	0x3f2750ca	0.6535765
57	0xbe06dd7b	-0.13170426
58	0xbe6e1397	-0.2324966
59	0x3f1e499e	0.6183108
60	0x3e81062b	0.25200018
61	0xbdb9a1be	-0.09064053
62	0x3e9dfed6	0.30858487
63	0x3f2ef0b4	0.68336034
64	0xbd58553d	-0.052815665
65	0x3ef7cb5f	0.48397347
66	0x3edb39c5	0.42817512
67	0x3f158b32	0.5841552
68	0x3cc66be5	0.02422137
69	0xbe6379fe	-0.22214505
70	0x3d4b28a3	0.0495993
71	0x3f068e59	0.52560955
72	0xbe64afec	-0.22332734
73	0x3f2ce1ff	0.6753234
74	0x3f0e429f	0.55570406
75	0x3e337577	0.17525278
76	0x3f25e3fc	0.64801
77	0x3eca8ea8	0.39561963
78	0x3d6047ee	0.054756097
79	0xbf146057	-0.579595
80	0xbda85d2b	-0.082208954
81	0xbe1c1ecc	-0.15246123
82	0xbd169073	-0.03675885
83	0x3eb9c215	0.36280885
84	0xbf003280	-0.50077057
85	0xbedc5b51	-0.4303842
86	0xbaed95ca	-0.0018126306
87	0xbcdd162b	-0.02698811
88	0xbf272a89	-0.6529928
89	0x3f299dc1	0.6625634
90	0x3ef123d6	0.47097653
91	0x3ef46689	0.47734478
92	0xbf20760d	-0.6268013
93	0xbe03c850	-0.12869382
94	0x3e8f990d	0.28046456
95	0x3ee25109	0.4420245
96	0x3c037804	0.008024219
97	0xbf1c3075	-0.6101144
98	0xbe6cdedb	-0.23131888
99	0xbeaa379c	-0.33245552
100	0x3eeaa282	0.4582711
101	0x3ed2b940	0.4115696
102	0xbe6fcdf1	-0.23418404
103	0x3f2d0d8c	0.67598796
104	0xbda4ab31	-0.08040465
105	0xbf082b84	-0.531914
106	0x3ef38031	0.4755874
107	0x3d7b2d75	0.061322648
108	0xbe2372cc	-0.1596176
109	0xbec7b055	-0.39001718
110	0xbe538d26	-0.20659313
111	0x3f127549	0.5721021
112	0xbe66df0a	-0.2254602
113	0xbed6045b	-0.41800198
114	0x3f1dc822	0.61633503
115	0x3ec6ace1	0.3880377
116	0xbd1d5c92	-0.03841836
117	0x3f0d3ef1	0.55174166
118	0xbf074503	-0.5283968
119	0xbeb8520a	-0.3600009
120	0xbdedf381	-0.1161871
121	0x3e05c96f	0.13065122
122	0x3ebca8e9	0.36847618
123	0x3eff4fea	0.49865657
124	0xbec47984	-0.3837396
125	0x3ee55ce3	0.4479743
126	0x3f086d8c	0.53292155
127	0x3ee59bb2	0.4484535
128	0x3e9c33c5	0.30508247
129	0xbe98020d	-0.29689065
130	0x3f0bed1a	0.54658663
131	0xbf2df398	-0.6794982
132	0xbf1fde5c	-0.6244867
133	0xbef39026	-0.47570914
134	0x3e603332	0.2189453
135	0x3ea51fc9	0.32250813
136	0x3f0d3a61	0.55167204
137	0x3e766ffc	0.24066156
138	0xbe9b587a	-0.3034094
139	0x3f04059d	0.51571065
140	0xbe1b29a4	-0.15152603
141	0x3bf282b9	0.0074008373
142	0x3f084957	0.5323691
143	0x3f036c80	0.5133743
144	0xbc928be5	-0.017888973
145	0xbe84f0e2	-0.2596503
146	0x3eaf3a6a	0.34224254
147	0xbe43a45e	-0.1910567
148	0x3ec33c26	0.38131827
149	0xbd4eadd3	-0.05045874
150	0xbedcfccb	-0.43161616
151	0x3e369a9b	0.17832415
152	0xbe5e48c9	-0.21707453
153	0x3e6bb0b9	0.23016633
154	0x3ed40008	0.41406274
155	0xbe81f0e3	-0.25379094
156	0x3f2e3a92	0.6805812
157	0xbf301162	-0.68776524
158	0xbe0efbf1	-0.13963296
159	0x3e90baed	0.28267613
160	0x3da1823f	0.078861706
161	0xbaebc573	-0.0017987922
162	0x3dcb11c4	0.09915498
163	0xbec9e399	-0.39431456
164	0xbed83a41	-0.42231944
165	0x3eab1320	0.3341303
166	0x3d5babb0	0.05363053
167	0x3e043a8c	0.12912959
168	0x3e8693ef	0.2628474
169	0x3ea18670	0.3154788
170	0xbea8aa3f	-0.32942387
171	0x3f3078ad	0.68934137
172	0xbe2be1b3	-0.16785316
173	0xbf21b07f	-0.63159937
174	0xbea105a7	-0.31449625
175	0xbe6b46e9	-0.22976269
176	0x3e6eb847	0.23312484
177	0x3d8dc6af	0.069226615
178	0x3eda5d68	0.42649388
179	0x3e12dadf	0.14341305
180	0xbd4f4509	-0.050602946
181	0xbe318434	-0.17335588
182	0xbdafbdd2	-0.08581127
183	0x3e1431e4	0.14472157
184	0x3f229019	0.63501126
185	0x3e42c5da	0.19020787
186	0xbedb5d1d	-0.42844477
187	0x3ed7cf57	0.42150375
188	0xbe784ed6	-0.24248824
189	0x3d06cbbc	0.03290914
190	0xbf15dcc2	-0.58539975
191	0x3dd51f3f	0.1040635
192	0xbf2b58aa	-0.66932166
193	0x3f0f75ca	0.56039107
194	0x3ed872ec	0.42275178
195	0xbeafb9d8	-0.34321475
196	0xbd4329e7	-0.047647383
197	0x3e755b37	0.23960577
198	0xbd462ad0	-0.048380673
199	0x3f0d256b	0.5513522

agen.w.0.bias f4 [100]
0	0x3d00bb9c	0.03142892
1	0xbf000f66	-0.50023496
2	0xbef44d1b	-0.47715077
3	0xbf0e02cf	-0.55473036
4	0xbdb9a89b	-0.09065362
5	0xbe95d4f2	-0.29264027
6	0xbea0e763	-0.31426534
7	0x3e4ca1a9	0.19983543
8	0xbe7f669a	-0.24941483
9	0xbeb0c3e2	-0.34524447
10	0x3da01f98	0.07818526
11	0xbe50c965	-0.20389326
12	0x3e4a1776	0.19735512
13	0x3f0d01e2	0.55081
14	0x3f0ff3dd	0.5623148
15	0xbeca3324	-0.39492142
16	0x3f28fb23	0.66008204
17	0xbe5ed830	-0.21762156
18	0xbf0b83b7	-0.54497856
19	0x3d0888a6	0.033333443
20	0xbe8360c6	-0.2565977
21	0xbecc8360	-0.3994398
22	0x3ef8351e	0.48478025
23	0x3f104a2c	0.5636318
24	0xbd3454e6	-0.044026278
25	0x3e3104f8	0.17287052
26	0x3d4ceaec	0.050028726
27	0x3f065e5c	0.5248773
28	0xbd65425d	-0.055971492
29	0xbdd18356	-0.102301285
30	0xbe855281	-0.26039508
31	0x3f2bcdb8	0.67110777
32	0xbf14a113	-0.5805828
33	0x3ed321e5	0.41236797
34	0xbda58409	-0.08081824
35	0xbee8ee2c	-0.4549421
36	0xbf05f54d	-0.52327424
37	0x3f0cdf14	0.5502789
38	0x3e139e9c	0.14415973
39	0xbee4eef0	-0.44713545
40	0x3f06b6af	0.52622503
41	0x3cba33f2	0.022729848
42	0xbf294ccf	-0.66132826
43	0x3f06e58a	0.52694
44	0xbeef20fb	-0.4670485
45	0xbf077f60	-0.52928734
46	0x3f14b3b7	0.58086723
47	0xbe9fe8d3	-0.31232318
48	0xbd4cf58a	-0.05003885
49	0x3f0de502	0.55427563
50	0x3f239d08	0.63911486
51	0x3eddb469	0.43301705
52	0x3d6a8291	0.057253424
53	0xbf302b82	-0.6881639
54	0xbef28396	-0.47366017
55	0xbe9758ff	-0.29560086
56	0xbea7b9df	-0.32758996
57	0x3f13cccb	0.57734364
58	0xbe817118	-0.25281596
59	0xbe9a3185	-0.30115905
60	0x3eaf7a50	0.34273005
61	0xbe6ce902	-0.2313576
62	0xbe052a51	-0.13004424
63	0x3f0a121e	0.53933895
64	0x3dc8b176	0.09799473
65	0x3eacc40f	0.3374333
66	0x3c37dba7	0.011221803
67	0xbe72610b	-0.23669831
68	0xbeafda9f	-0.34346482
69	0xbef7aaf0	-0.48372602
70	0xbee9b26c	-0.45643938
71	0x3ec04bb1	0.37557748
72	0x3f1836e7	0.59458774
73	0x3ead57d5	0.33856073
74	0x3d2a580e	0.04158788
75	0x3e1e64a8	0.15468085
76	0xbeb96141	-0.3620701
77	0xbe754a00	-0.2395401
78	0xbed515cb	-0.4161819
79	0xbb724bb0	-0.0036971383
80	0xbe9cd18b	-0.3062862
81	0xbd017e71	-0.031614725
82	0x3f14689e	0.57972133
83	0xbed35667	-0.41276857
84	0x3e94a342	0.29030806
85	0x3f0b3b94	0.54387784
86	0x3e8c1d26	0.27365988
87	0xbe9a0402	-0.30081183
88	0x3ed2f71e	0.4120416
89	0x3e4aedd3	0.19817285
90	0x3f1e596f	0.61855215
91	0x3f1ddb36	0.61662614
92	0x3e72325f	0.23652028
93	0x3e9de2b6	0.3083703
94	0x3f2cab5f	0.6744899
95	0x3e34d6e2	0.17660096
96	0x3ee7049d	0.45120707
97	0xbeac98d1	-0.3371034
98	0xbe4b00e4	-0.19824558
99	0x3f0c4486	0.5479206

crgen.net.0.weight f4 [4, 3]
0	0x3e1ef01f	0.15521286
1	0xbe6629c6	-0.22476873
2	0x3e89a8a1	0.26886466
3	0xbe6eb47b	-0.23311035
4	0x3ed7c07b	0.42139038
5	0x3eb89b58	0.36056018
6	0x3e7d4c78	0.24736202
7	0x3da0ee79	0.07857985
8	0x3e91eb97	0.28500053
9	0xbdecbf02	-0.11559869
10	0xbe653533	-0.22383575
11	0xbcbe4c68	-0.023229793

crgen.net.0.bias f4 [4]
0	0xbbc8fb7f	-0.0061334963
1	0x3f111aa8	0.566813
2	0x3f0ca6df	0.54942125
3	0x3e9ad893	0.30243358

crgen.net.2.weight f4 [4]
0	0x3fa7ab9e	1.3099248
1	0x3f928003	1.1445316
2	0x3fa95f46	1.32322
3	0x3f87a5f1	1.0597516

crgen.net.2.bias f4 [4]
0	0xbeb76143	-0.35816392
1	0x3ea368b9	0.31915835
2	0x3eaa5e2a	0.33274966
3	0xbd5125c5	-0.05106141

crgen.net.3.weight f4 [1, 4]
0	0x3eb94920	0.36188602
1	0xbf143ac1	-0.5790215
2	0xbf0988b5	-0.53724223
3	0x3df600ec	0.120118946
